…
ion":{"iopub.status.busy":"2024-10-10T06:04:13.044764Z","iopub.execute_input":"2024-10-10T06:04:13.045094Z","iopub.status.idle":"2024-10-10T06:04:47.296651Z","shell.execute_reply.started":"2024-10-10T06:04:13.045065Z","shell.execute_reply":"2024-10-10T06:04:47.295638Z"},"trusted":true},"execution_count":11,"outputs":[{"name":"stdout","text":"Model: \"sequential_2\"\n_________________________________________________________________\n Layer (type)                Output Shape              Param #   \n=================================================================\n time_distributed_14 (TimeDi  (None, 1, 32, 32, 32)    896       \n stributed)                                                      \n                                                                 \n time_distributed_15 (TimeDi  (None, 1, 16, 16, 32)    0         \n stributed)                                                      \n                                                                 \n time_distributed_16 (TimeDi  (None, 1, 16, 16, 32)    0         \n stributed)                                                      \n                                                                 \n time_distributed_17 (TimeDi  (None, 1, 16, 16, 64)    18496     \n stributed)                                                      \n                                                                 \n time_distributed_18 (TimeDi  (None, 1, 8, 8, 64)      0         \n stributed)                                                      \n                                                                 \n time_distributed_19 (TimeDi  (None, 1, 8, 8, 64)      0         \n stributed)                                                      \n                                                                 \n time_distributed_20 (TimeDi  (None, 1, 4096)          0         \n stributed)                                                      \n                                                                 \n lstm_2 (LSTM)               (None, 64)                1065216   \n                                                                 \n dropout_8 (Dropout)         (None, 64)                0         \n                                                                 \n dense_4 (Dense)             (None, 64)                4160      \n                                                                 \n dense_5 (Dense)             (None, 5)                 325       \n                                                                 \n=================================================================\nTotal params: 1,089,093\nTrainable params: 1,089,093\nNon-trainable params: 0\n_________________________________________________________________\nEpoch 1/20\n","output_type":"stream"},{"name":"stderr","text":"2024-10-10 06:04:15.078319: E tensorflow/core/gr
…
